ppo_nfl.pt (torch, 86409 bytes, 8 tensors)

log_std f4 [4]
0	0x3d66919e	0.056291215
1	0xbd31df60	-0.043425918
2	0x3e00f9c2	0.12595275
3	0xbe8a6c92	-0.27035958

body.0.weight f4 [128, 27]
0	0x3d98f633	0.07468834
1	0xbccc7d60	-0.024962127
2	0x3dd131ca	0.10214575
3	0xbd1a67b9	-0.037696574
4	0x3dce891c	0.10084745
5	0x3c8516f3	0.016246295
6	0xbcb5334e	-0.02211919
7	0xbe1f52a7	-0.15558873
8	0x3d33f984	0.04393913
9	0xbe2e7951	-0.17038466
10	0x3dbd03be	0.092292294
11	0x3d990656	0.074719116
12	0xbcbe6c60	-0.023245037
13	0x3e24e3c1	0.16102506
14	0xbc77ff18	-0.015136503
15	0x3e110aed	0.14164324
16	0x3d2b3ae7	0.04180422
17	0xbe2a4c97	-0.16630779
18	0x3d650a6b	0.05591814
19	0x3e093478	0.13398921
20	0xbe97dd77	-0.29661152
21	0x3cf091c7	0.029366387
22	0x3d134546	0.035954736
23	0x3e48593f	0.19565295
24	0xbd93aadd	-0.07210324
25	0x3d814f57	0.06313961
26	0xbcfc5163	-0.030800527
27	0xbe28f244	-0.16498667
28	0xbe319df5	-0.17345412
29	0xbdfb7434	-0.12278023
30	0xbdf8c3d5	-0.12146727
31	0xbe2d85fd	-0.16945644
32	0x3d6f3d7f	0.058408257
33	0x3e01b33a	0.12666026
34	0x3c1b543b	0.009480531
35	0xbdb4ab32	-0.088217154
36	0x3dad3791	0.08457864
37	0xbddf761f	-0.10911202
38	0xbd9d67e5	-0.07685832
39	0xbe09fea7	-0.13476048
40	0xbc09383c	-0.008375224
41	0xbe296ae9	-0.16544689
42	0x3ded6841	0.115921505
43	0x3dd9fa90	0.10643494
44	0x3d1536ec	0.03642933
45	0x3e0035d2	0.12520531
46	0x3cb99c11	0.022657426
47	0xb993cd1c	-0.00028190843
48	0xbd938445	-0.07202963
49	0x3ce9a21a	0.028519679
50	0x3e33e390	0.17567277
51	0x3e1fb843	0.15597634
52	0x3e4827e1	0.19546463
53	0x3e2b73d2	0.167434
54	0xbe173fc6	-0.14770421
55	0xbdae3e0e	-0.0850793
56	0xbd19b12e	-0.037522487
57	0x3de25654	0.11051622
58	0x3c270a8e	0.0101953875
59	0x3e469bc3	0.19395356
60	0x3dc7e758	0.09760922
61	0xbe286d3d	-0.16447921
62	0x3d669893	0.05629785
63	0x3e3d5bc1	0.18492033
64	0x3e41a8c7	0.1891204
65	0x3ce51ba3	0.02796728
66	0x3d26c5c7	0.04071596
67	0xbe195d25	-0.14976938
68	0xbdd9baeb	-0.10631355
69	0x3de55083	0.11196997
70	0xbe5bbdd6	-0.21459135
71	0x3e4ce1f4	0.2000807
72	0xbe4407a0	-0.19143534
73	0x3e0bce1c	0.13652843
74	0x3d3e5232	0.046465106
75	0xbd9595f7	-0.07303994
76	0x3e09dcf4	0.13463193
77	0xbe3664cf	-0.17811893
78	0xbd296c17	-0.041362848
79	0xbdfa1fbe	-0.122130856
80	0x3e8c1419	0.27359083
81	0xbd25fc6f	-0.040523943
82	0xbe864a95	-0.26228777
83	0x3db86d7b	0.09005257
84	0x3d5a52e0	0.053301692
85	0xbe0955d7	-0.13411652
86	0x3d297d7d	0.04137944
87	0x3daa63cd	0.08319817
88	0xbdf53c34	-0.119743735
89	0xbdd05903	-0.10173228
90	0xbc981585	-0.018564949
91	0xbe1c6a22	-0.15274861
92	0x3def3848	0.11680657
93	0x3cec61e7	0.028855277
94	0x3de252a5	0.110509194
95	0x3d44cdf0	0.04804796
96	0xbdfb599a	-0.122729495
97	0xbdbd96e8	-0.09257299
98	0xbe0cf02d	-0.13763495
99	0xbd86da6e	-0.06584631
100	0xbd1b77d3	-0.03795607
101	0x3c61494d	0.013750386
102	0xbe50934d	-0.20368691
103	0x3d3bd12d	0.045853782
104	0x3e0550dd	0.13019128
105	0x3ddf5c28	0.10906249
106	0x3e224162	0.15845254
107	0x3e3b7a5d	0.18308397
108	0xbe9e3dd4	-0.30906546
109	0xbcc8483f	-0.024448512
110	0x3df07db5	0.11742727
111	0xbde3bb39	-0.11119694
112	0xbc351d0c	-0.011054289
113	0xbd61b87f	-0.05510759
114	0xbdf52fc4	-0.11972001
115	0xbd14935b	-0.03627334
116	0xbce8f7cd	-0.028438473
117	0x3e2f952b	0.17146747
118	0xbd967b76	-0.07347767
119	0x3d4c62f2	0.04989905
120	0x3da27061	0.07931591
121	0x3def2c65	0.116783895
122	0xbe129875	-0.1431597
123	0x3df9472d	0.12171779
124	0x3e4d119e	0.20026252
125	0xbe66d01d	-0.22540326
126	0x3c30e7f0	0.010797486
127	0x3ddcaeb7	0.10775512
128	0xbe4beb9c	-0.19914097
129	0xbe1ee099	-0.15515365
130	0x3cc9f687	0.024653686
131	0x3df3a62d	0.1189693
132	0xbdaea60d	-0.085277654
133	0xbe067400	-0.13130188
134	0x3d2c207a	0.04202316
135	0x3e2ef1de	0.17084453
136	0x3dd567b6	0.10420172
137	0xbda98eaa	-0.08279164
138	0x3e2e08c3	0.1699553
139	0xbd0c4bd5	-0.034252007
140	0xbe65206d	-0.2237565
141	0xbced55fc	-0.028971665
142	0x3e00b765	0.1256996
143	0x3db5830d	0.088628866
144	0xbb06cab0	-0.0020567589
145	0x3e406b87	0.18791018
146	0xbdef2a82	-0.116780296
147	0x3e4c7c63	0.19969325
148	0x3e6fcd6e	0.23418209
149	0xbdb64a8e	-0.08900939
150	0xbbb001b4	-0.005371297
151	0xbc74ba97	-0.014937065
152	0xbe73acba	-0.23796359
153	0xbd9ac00d	-0.07556162
154	0xbd8d6233	-0.06903496
155	0xbe51e552	-0.20497635
156	0xbe311458	-0.17292917
157	0x3d0896c1	0.033346895
158	0x3e035e29	0.12828888
159	0x3d6f8ee7	0.05848589
160	0xbe2b1cd1	-0.16710211
161	0x3e286519	0.16444816
162	0x3cc64618	0.024203345
163	0xbe7e15c4	-0.2481299
164	0xb924e23e	-0.0001572454
165	0x3e3e603a	0.18591395
166	0xbe598141	-0.21240713
167	0x3d0767da	0.033058025
168	0xbdc45db8	-0.09588188
169	0xbe1b63e7	-0.15174828
170	0xbddff450	-0.10935271
171	0x3c9e50c9	0.01932563
172	0x3d29b058	0.04142794
173	0xbdd41051	-0.103546746
174	0xbe80caa7	-0.2515461
175	0xbd3c3813	-0.045951914
176	0xbe19c05f	-0.1501479
177	0xbb9dfafe	-0.0048211804
178	0x3e403042	0.18768409
179	0x3dbf0ac2	0.09328224
180	0xbd95c760	-0.073134184
181	0xbdec04d9	-0.11524362
182	0x3d0cf848	0.034416467
183	0x3ce194ed	0.027536834
184	0xbe2956e9	-0.1653706
185	0xbe3451e5	-0.17609365
186	0xbd8e034e	-0.06934224
187	0x3cf7da91	0.030255588
188	0x3e27903c	0.16363615
189	0x3e3a24b5	0.18178065
190	0x3e452f4e	0.19256327
191	0xbeb4a5c1	-0.3528271
192	0x3e466ec3	0.1937819
193	0x3db90624	0.09034374
194	0xbdd203ef	-0.102546565
195	0xbdbd1c7e	-0.0923395
196	0x3d6019a3	0.05471195
197	0xbdd5a414	-0.10431686
198	0x3d9fff2d	0.07812343
199	0xbb51c93e	-0.0032010819
200	0xbe8baec1	-0.27281764
201	0xbe8c33a9	-0.27383164
202	0xbdfa9a06	-0.12236409
203	0xbd8396fb	-0.064252816
204	0xbb189b39	-0.002328588
205	0x3e14818d	0.14502545
206	0x3ddb4353	0.107062005
207	0xbd035806	-0.032066368
208	0xbe11a6c2	-0.1422377
209	0x3b5c6967	0.003363216
210	0xbdcd95a4	-0.10038307
211	0xbdec1e07	-0.11529165
212	0x3d402eec	0.04691975
213	0xbd19df94	-0.037566736
214	0xbdc3ee2d	-0.09566913
215	0x3e12ba85	0.14328964
216	0xbc89ceed	-0.016822303
217	0xbd451b1e	-0.048121564
218	0x3e167822	0.14694265
219	0x3e553cab	0.20823924
220	0xbd5074bd	-0.05089258
221	0xbe848989	-0.2588618
222	0x3e363bff	0.17796324
223	0x3e0dd108	0.1384927
224	0xbc967919	-0.01836829
225	0xbdb20899	-0.08693046
226	0xbdc640e8	-0.09680349
227	0x3e2010f8	0.15631473
228	0x3e1b0329	0.15137924
229	0xbe2436a4	-0.16036469
230	0x3b8d7d3d	0.004317908
231	0x3cdbeec2	0.026847247
232	0x3d95b693	0.07310214
233	0xbdc796b4	-0.09745541
234	0xbd97a8ac	-0.074052185
235	0xbdc006c3	-0.0937629
236	0x3d102ddd	0.03519999
237	0xbd227625	-0.039663453
238	0xbd97d48f	-0.07413589
239	0xbdc0e1c2	-0.0941806
240	0xbe13ab40	-0.14420795
241	0x3d66dccd	0.056362916
242	0xbe47e90c	-0.19522494
243	0xbe9a0e97	-0.30089256
244	0x3e118c5a	0.14213696
245	0x3e0c3a74	0.13694173
246	0x3d68c40d	0.056827594
247	0x3d34eb70	0.044169843
248	0x3c452af5	0.012034168
249	0xbdf78a07	-0.120868735
250	0xbe065585	-0.1311856
251	0xbc46fad8	-0.012144767
252	0x3d43824e	0.04773169
253	0xbdb8c727	-0.0902236
254	0xbd207b30	-0.03917998
255	0x3e191f48	0.14953339

body.0.bias f4 [128]
0	0xbdc8dc54	-0.09807649
1	0x3da6aedd	0.08138821
2	0xbceec258	-0.029145405
3	0x3e455f24	0.19274575
4	0xbd60ac24	-0.054851666
5	0xbcb742a1	-0.022370638
6	0xbca12376	-0.01967023
7	0x3dbd1799	0.092330165
8	0x3e10b909	0.14133085
9	0xbd991e24	-0.07476452
10	0x3e91f688	0.285084
11	0x3ad2737b	0.0016056144
12	0xbd482cfd	-0.04887103
13	0x3dd42550	0.10358679
14	0xbe21aac6	-0.15787801
15	0xbe075314	-0.13215286
16	0x3e94d6c4	0.29070103
17	0x3d7743a8	0.060367256
18	0xbcf0a9b8	-0.029377803
19	0x3d22a029	0.039703522
20	0x3e8df988	0.2772944
21	0x3e6132ba	0.21992007
22	0x3e605b9c	0.21909946
23	0xbdb0915b	-0.08621474
24	0xbd688ee5	-0.0567769
25	0xbc7eed91	-0.01555957
26	0x3e3d0b61	0.18461372
27	0xbb270f84	-0.0025491426
28	0x3e735ae7	0.23765145
29	0xbd904135	-0.07043687
30	0x3da4263e	0.080151066
31	0x3e4d7193	0.20062856
32	0x3e13efab	0.14446895
33	0x3dc77e5e	0.097408995
34	0x3e3e4e69	0.18584599
35	0xbda0da0b	-0.078540884
36	0xbd9e4007	-0.07727056
37	0x3e3867df	0.18008374
38	0xbcbf4159	-0.02334659
39	0xbe1795cd	-0.14803238
40	0xbdc1d948	-0.09465271
41	0x3e466de3	0.19377856
42	0xbdd002d2	-0.10156788
43	0x3dc0843b	0.09400221
44	0xbe0b8b04	-0.13627249
45	0x3e81f703	0.25383767
46	0x3da80ed3	0.082059525
47	0x3d6f15e5	0.05837049
48	0xbd59722f	-0.05308741
49	0xbd446e3c	-0.04795669
50	0xbe0555c4	-0.13020998
51	0x3e861445	0.2618734
52	0xbc9a9036	-0.018867593
53	0x3ea4ce76	0.32188767
54	0x3dcacec2	0.09902717
55	0x3e91f42d	0.28506604
56	0x3dc58a33	0.096455
57	0xbe6682ce	-0.22510836
58	0xbe2c65b5	-0.16835673
59	0x3e235f9e	0.15954444
60	0x3e430990	0.19046617
61	0x3dc9dfa8	0.09857112
62	0x3e285098	0.16436994
63	0xbcb82927	-0.02248056
64	0xbd8ebe72	-0.06969918
65	0xbd3bdf9f	-0.04586756
66	0xbdcde068	-0.10052568
67	0x3e7dc543	0.2478228
68	0xbde8170a	-0.11332519
69	0xbe207466	-0.15669402
70	0xbd470a67	-0.048593905
71	0xbd2de414	-0.04245384
72	0xbd76ae52	-0.06022484
73	0xbe4896ea	-0.19588819
74	0xbe74a5a2	-0.23891309
75	0x3e171425	0.14753778
76	0x3e840b9a	0.257901
77	0x3e6444ca	0.22291866
78	0x3e2787dd	0.16360421
79	0xb93b1bed	-0.00017844113
80	0x3dc6051b	0.096689425
81	0x3cd97882	0.02654672
82	0xbe360845	-0.17776592
83	0x3de74ffb	0.11294552
84	0x3debeead	0.11520133
85	0x3e92063f	0.2852039
86	0x3df35440	0.11881304
87	0xbcdca291	-0.026932986
88	0xbda4c23f	-0.08044862
89	0x3e8fbc3a	0.28073293
90	0xbd77891e	-0.0604335
91	0xbca1f07d	-0.019767994
92	0x3d7a316f	0.0610823
93	0x3e26586a	0.16244665
94	0x3d69b329	0.057055626
95	0xbe39b4cd	-0.18135376
96	0x3e84297c	0.258129
97	0x3dd0bfad	0.10192809
98	0xbccf539b	-0.02530842
99	0x3e52abd1	0.20573355
100	0x3dc350aa	0.0953687
101	0xbdba38f9	-0.09092898
102	0xbe3486a6	-0.1762949
103	0x3c87bd4e	0.01656976
104	0xbe15b4f8	-0.14619815
105	0xbd7ca67b	-0.061682206
106	0x3c2279ad	0.009916705
107	0xbdc23f4b	-0.094847284
108	0x3d7fa441	0.062412504
109	0x3e0b95b6	0.13631329
110	0x3e15fd20	0.14647341
111	0x3daf10c6	0.08548121
112	0xbe73f0ac	-0.23822278
113	0xbe16c0d1	-0.14721991
114	0x3d6ed1d2	0.05830557
115	0x3cac2c82	0.021017317
116	0xbb338c7e	-0.0027396972
117	0xbe19f9f3	-0.15036754
118	0xbd803178	-0.062594354
119	0x3d8bfded	0.06835542
120	0xbea1d784	-0.31609738
121	0x3e076215	0.13221009
122	0xbd2555d8	-0.04036507
123	0x3e06c43f	0.131608
124	0x3e5a213a	0.21301737
125	0x3e8ae41f	0.27127168
126	0xbb984c1e	-0.0046477458
127	0xbe139f7f	-0.14416312

body.2.weight f4 [128, 128]
0	0x3d73c3d6	0.059512936
1	0xbd1dd07b	-0.0385289
2	0xbcb8dc8c	-0.022566102
3	0xbbdd929c	-0.006761862
4	0x3d530ac4	0.05152394
5	0xbda1bac7	-0.07896953
6	0xbcb6ae23	-0.022299832
7	0xbdee3be2	-0.116325155
8	0xbd42e002	-0.04757691
9	0x3d340ea1	0.043959264
10	0xbd9d1018	-0.07669085
11	0xbd988dd7	-0.07448929
12	0x3c4be6d5	0.012445171
13	0x3dba7d73	0.09105959
14	0x3c026318	0.007958196
15	0x3de445e4	0.11146143
16	0x3d089c10	0.033351958
17	0xbd85036b	-0.064947926
18	0xbb83b5b3	-0.004019463
19	0x3cdd46fd	0.027011389
20	0xbd94d218	-0.07266635
21	0x3d012c4f	0.031536397
22	0xbdfc6a39	-0.12324948
23	0x3c4abc5a	0.012374008
24	0x3c156f74	0.009120811
25	0xbbefef46	-0.007322225
26	0xbcbeb8e8	-0.02328153
27	0xbb8242ab	-0.0039752326
28	0xbdba63c7	-0.09101062
29	0x3dace4d4	0.08442083
30	0xbdf66f87	-0.12032991
31	0x3cfb0123	0.03064019
32	0x3da7cbaa	0.08193143
33	0xbb6c523e	-0.0036059762
34	0xbde1c95b	-0.11024734
35	0x3bc36edd	0.0059641437
36	0xbd9ed7f3	-0.07756033
37	0x3d04317c	0.032273754
38	0xbda40424	-0.08008602
39	0xbd3d7c1e	-0.046260945
40	0xbe472643	-0.1944819
41	0x3dca1cfe	0.09868811
42	0xbd194853	-0.03742249
43	0xbd0e7a7a	-0.03478477
44	0xbccef429	-0.025262909
45	0x3d4e43d8	0.05035767
46	0x3d87482d	0.06605563
47	0xbcaf8fbf	-0.021430848
48	0x3ddb1788	0.106978476
49	0xbe0806c6	-0.13283834
50	0xbd054ae0	-0.03254211
51	0x3da1c2a2	0.078984514
52	0x3dd487e4	0.103774816
53	0x3d6aa1d7	0.05728325
54	0xbd2b45fa	-0.04181478
55	0x3ddbdcbf	0.10735463
56	0x3d8f7338	0.07004398
57	0xbd875bf3	-0.06609335
58	0x3e14e424	0.14540154
59	0x3d9854dc	0.07438061
60	0x3dcfc81a	0.10145588
61	0x3e397571	0.18111207
62	0xbe320a00	-0.17386627
63	0x3dc771cc	0.09738502
64	0x3d0ad610	0.033895552
65	0x3dd01984	0.10161117
66	0x3cdea680	0.027179003
67	0xbd5707c5	-0.052497644
68	0xbe1e504c	-0.15460318
69	0x3d4ba0c9	0.049713884
70	0xbbeddc49	-0.007258926
71	0x3ced6684	0.028979547
72	0xbb3d3b55	-0.0028874476
73	0xbda1bec0	-0.07897711
74	0xbe5d8f79	-0.21636762
75	0xbdddb8ff	-0.10826301
76	0x3c18e803	0.00933266
77	0xbd122125	-0.03567614
78	0xbd453b7b	-0.048152428
79	0xbd124629	-0.03571144
80	0x3dd38baa	0.10329373
81	0xbe2aa0dd	-0.16662927
82	0xbcbaa870	-0.022785395
83	0x3b94584e	0.0045271283
84	0x3de2790a	0.110582426
85	0x3deae3f7	0.11469262
86	0xbd0e6ab4	-0.03476973
87	0xbd5b67bf	-0.053565737
88	0x3dc73513	0.0972692
89	0xbd1eafc2	-0.038741834
90	0xbc9e82c3	-0.019349461
91	0xbbbebfd8	-0.0058212094
92	0x3d4f10c5	0.050553102
93	0x3d99416f	0.074831836
94	0xbbf5df2b	-0.0075034103
95	0xbe1e11d6	-0.15436491
96	0x3d651424	0.05592741
97	0xbc6058d5	-0.013693054
98	0xbbd9f4ab	-0.006651481
99	0xbaa6864f	-0.0012704822
100	0x3dc029b2	0.09382953
101	0x3c7b631f	0.0153434565
102	0xbe1d5799	-0.15365447
103	0xbdf573fc	-0.11985013
104	0x3dac09c3	0.084002994
105	0xbd25f3fe	-0.040515892
106	0xbdf3cd48	-0.11904389
107	0xbdb38317	-0.08765238
108	0xbadd0fc5	-0.0016865662
109	0xbdf75b04	-0.12077907
110	0xbda8364f	-0.082134835
111	0x3d1becae	0.038067512
112	0x3cf73fac	0.030181728
113	0xbe160ed4	-0.14654094
114	0xbc0d39dd	-0.008619753
115	0xbdd19644	-0.10233739
116	0x3dd526ef	0.104078166
117	0x3c84f1dc	0.016228609
118	0xbd869512	-0.06571402
119	0xbc26a431	-0.010170982
120	0x3d7b2612	0.061315604
121	0x3cf6a164	0.030106254
122	0xbda2d246	-0.07950263
123	0x3da53454	0.080666214
124	0xbd2f6a72	-0.042826124
125	0x3ddd08d8	0.107927024
126	0x3b5a735f	0.0033332927
127	0xbd596e94	-0.05308397
128	0xbddf51da	-0.10904284
129	0xbd214259	-0.039369915
130	0xbb1c86c4	-0.0023884038
131	0x3dbb054d	0.091318704
132	0xbcb70c82	-0.022344831
133	0x3d83f4a5	0.064431466
134	0x3d58158e	0.05275493
135	0x3dc3c85f	0.09559702
136	0x3e285189	0.16437353
137	0x3d9bda60	0.07610011
138	0x3d455e54	0.04818566
139	0x3dfaeb4d	0.12251911
140	0x3d7a94f1	0.061177198
141	0x3dcc90e8	0.09988576
142	0xbd4e2618	-0.050329298
143	0xbca730dd	-0.020409042
144	0x3d25e447	0.040500905
145	0xbd3d57a3	-0.046226155
146	0x3c94f1ad	0.018181646
147	0xbccbba95	-0.024869243
148	0x3d987fe5	0.07446269
149	0x3e1388c1	0.14407636
150	0xbcaa61aa	-0.020798523
151	0xbaf40253	-0.0018616415
152	0xbdb2a7ab	-0.087233864
153	0x3db28416	0.087166
154	0x3db2cd54	0.087305695
155	0x3d1b873f	0.037970778
156	0x3d9a830c	0.075445265
157	0xbd71502f	-0.05891436
158	0x3dc3d90e	0.09562884
159	0xbc213bfb	-0.009840961
160	0xbc4371e1	-0.011929006
161	0x3c335398	0.010945223
162	0x3e16aa59	0.1471342
163	0x3dd75c9a	0.10515709
164	0x3d179a88	0.037012607
165	0x3db45b0c	0.08806428
166	0x3d68988a	0.056786098
167	0xbd04dcfe	-0.032437317
168	0x3d6e19db	0.058130126
169	0xbb7fa4da	-0.0039008171
170	0x3d41f187	0.04734948
171	0x3d8bc645	0.06824926
172	0x3cf7cd11	0.03024915
173	0x3e094411	0.13404872
174	0x3e07c726	0.13259563
175	0x3decfacc	0.11571273
176	0xbcfbf5ee	-0.030756917
177	0x3cd56fea	0.026054341
178	0x3d865088	0.06558329
179	0x3dcaef2a	0.09908898
180	0x3d3cc77b	0.046088677
181	0x3d956509	0.072946616
182	0x3dbea6fa	0.09309192
183	0x3df82073	0.12115564
184	0xbba5ec2a	-0.0050635533
185	0xbd9fc66c	-0.07801518
186	0xbd4659c9	-0.04842547
187	0x3dc44789	0.09583957
188	0xbcbf2488	-0.02333285
189	0xbc5fee5b	-0.013667668
190	0x3de67320	0.11252427
191	0x3d8d89d9	0.06911058
192	0x3cea26d0	0.02858296
193	0x3da2cd28	0.07949287
194	0xbc9aaeca	-0.018882174
195	0x3e1c7f4b	0.15282933
196	0x3dd143f7	0.102180414
197	0x3d0d3888	0.03447774
198	0xbab6ca12	-0.001394572
199	0x3d375c20	0.04476559
200	0x3d5cd375	0.0539126
201	0xbca83b79	-0.020536171
202	0x3c565502	0.013081791
203	0x3ccc7fa6	0.024963211
204	0xbcc3671c	-0.023852877
205	0xbc19f5d3	-0.009396988
206	0xbc1850f1	-0.009296642
207	0x3cd6941b	0.026193669
208	0xbdd7f749	-0.10545213
209	0xbb83a5ae	-0.0040175533
210	0xbd87e3c5	-0.066352405
211	0x3b597d9d	0.0033186444
212	0x3d960604	0.07325366
213	0xbc6ffaa0	-0.014647156
214	0x3d456dd4	0.048200443
215	0x3ce3f229	0.027825432
216	0xbcf460d8	-0.029831335
217	0x3e02ab44	0.12760645
218	0xbcc5e4ce	-0.024156954
219	0x3ce975ad	0.028498495
220	0x3c881160	0.016609848
221	0x3debd8b2	0.11515941
222	0x3dbda041	0.09259082
223	0xbc85135e	-0.016244587
224	0xbb07e993	-0.0020738586
225	0xbb8c93f2	-0.0042900974
226	0x3cad2075	0.02113364
227	0x3bfb8d65	0.0076767677
228	0x3d3939dd	0.0452212
229	0xbbbf1b61	-0.0058321212
230	0x3d1e7255	0.038683254
231	0x3da8415a	0.0821559
232	0xbd690569	-0.056889925
233	0xbd5afa5b	-0.053461414
234	0x3d454ed6	0.048170887
235	0xbd7edc42	-0.062221773
236	0x3de7cbc0	0.11318159
237	0xbc89afe2	-0.0168075
238	0x3dcaeb51	0.09908164
239	0xbd631827	-0.055442955
240	0xbd801d32	-0.062555686
241	0x3da44809	0.08021552
242	0xbda00042	-0.07812549
243	0x3ccc30e8	0.024925664
244	0x3d23e226	0.040010594
245	0xbdef1713	-0.11674323
246	0xbda2face	-0.079579934
247	0xbbee4d59	-0.007272404
248	0xbde082ab	-0.10962423
249	0xbbb40841	-0.005494148
250	0xbd2c0189	-0.04199365
251	0xbc22eb90	-0.009943858
252	0x3a7b13da	0.0009577848
253	0x3de6d8b4	0.112718016
254	0x3da1f252	0.07907547
255	0x3cf86483	0.030321365

body.2.bias f4 [128]
0	0x3d3f2a00	0.046670914
1	0x3e18f252	0.14936188
2	0x3e3d2425	0.1847082
3	0xbd0865f2	-0.033300348
4	0x3e072c35	0.13200457
5	0x3e4f63dc	0.20252937
6	0xbd4e7111	-0.050400797
7	0x3d2f4110	0.042786658
8	0x3e1e10a7	0.1543604
9	0x3b25f08a	0.0025320374
10	0x3e381995	0.17978509
11	0x3dfd28f1	0.123613246
12	0xbd95d5f6	-0.073162004
13	0xbcf81007	-0.03028108
14	0x3d5b9fe2	0.053619273
15	0xbc2ccd5b	-0.010547007
16	0xbd54019d	-0.05175935
17	0x3ce19ee9	0.027541595
18	0xbda3c199	-0.0799591
19	0xbd760bf4	-0.060069993
20	0xbb2584c7	-0.0025256143
21	0xbbcc3b9a	-0.006232691
22	0x3d5eabb2	0.05436296
23	0xbc8322c4	-0.016007788
24	0x3c88c7a3	0.016696757
25	0x3dd48b99	0.10378189
26	0x3d545b6f	0.05184501
27	0x3c066e60	0.008205026
28	0x3e437d07	0.19090663
29	0x3bc9d626	0.0061595617
30	0x3d239508	0.03993705
31	0x3dca73de	0.09885381
32	0xbd429b58	-0.04751143
33	0x3cd38e2e	0.025824632
34	0x3de5c32a	0.11218865
35	0xbd5f6777	-0.05454203
36	0xbd7118fc	-0.058861718
37	0x3e4394de	0.19099757
38	0x3dbf61a8	0.09344798
39	0xbd4a9d0d	-0.04946618
40	0x3e268791	0.16262652
41	0xbdf52507	-0.11969953
42	0x3d8e6282	0.069523826
43	0xbcc02210	-0.023453742
44	0xbde653d3	-0.11246457
45	0x3df8115a	0.121126845
46	0x3d2391f9	0.039934132
47	0x3e53fc61	0.20701744
48	0xbd97fc62	-0.07421185
49	0x3d711573	0.058858346
50	0xbcefb760	-0.029262245
51	0xbcdec92d	-0.027195537
52	0x3d3854e5	0.045002837
53	0x3e2785e4	0.16359669
54	0xbd427c36	-0.047481738
55	0xbd5714bd	-0.052510012
56	0x3cdd0bb7	0.026983125
57	0x3d785c70	0.06063503
58	0xbd1c86de	-0.038214557
59	0x3c67ba33	0.014143514
60	0x3cc19d7a	0.023634661
61	0x3cf2a089	0.029617565
62	0x3dc8a566	0.09797172
63	0xbdde965f	-0.10868525
64	0x3e392f62	0.18084481
65	0x3d0c9b57	0.03432783
66	0x3dc0e3f5	0.09418479
67	0x3c352e2e	0.011058373
68	0xbd07ebae	-0.033183746
69	0xbd8129e4	-0.06306818
70	0x3e3516c7	0.1768447
71	0x3e556a2c	0.20841283
72	0x3da827e2	0.08210732
73	0xbd861fc8	-0.065490305
74	0xbc00f6b9	-0.007871323
75	0xbc18f00b	-0.009334574
76	0x3c5fa258	0.013649546
77	0x3d195bec	0.03744118
78	0x3e3bc12b	0.18335406
79	0x3dde6161	0.10858417
80	0x3e550e43	0.20806222
81	0x3d2d97a6	0.04238095
82	0x3cef49f7	0.029210074
83	0x3e271826	0.16317806
84	0xbc62f6c8	-0.013852783
85	0x3dad661c	0.084667414
86	0x3e149cd5	0.14512952
87	0x3cd89e9a	0.026442815
88	0x3d9579a3	0.07298591
89	0xbdc4b245	-0.09604315
90	0x3e23b887	0.1598836
91	0x3c33a07e	0.010963557
92	0x3d022c28	0.031780392
93	0x3d419217	0.047258463
94	0xbd7b1b7d	-0.06130551
95	0x3d0f63b2	0.035007186
96	0x3d20e924	0.03928484
97	0x3c85bac9	0.016324418
98	0xbd244b33	-0.040110778
99	0xbdbb1802	-0.091354385
100	0xbd3af08a	-0.045639552
101	0x3df72063	0.12066724
102	0x3e2c5775	0.16830237
103	0x3db9e47d	0.09076784
104	0xbbfca7c7	-0.0077104303
105	0x3ca3dd55	0.020003
106	0x3ddacedb	0.10683986
107	0x3d369c81	0.044582848
108	0x3dcb14d8	0.09916085
109	0x3e7e1d23	0.24815802
110	0x3de42c27	0.11141234
111	0x3d3dd1df	0.046342727
112	0x3cf6754c	0.030085228
113	0x3e3656f7	0.17806612
114	0x3d266c32	0.040630527
115	0xbced3e4a	-0.028960366
116	0x3e6372f7	0.22211824
117	0xbd2bde18	-0.041959852
118	0xbda69a85	-0.08134941
119	0x3ad2b2ba	0.0016074993
120	0xbc4859e3	-0.012228462
121	0x3e40ccaf	0.1882808
122	0x3d5e8696	0.05432757
123	0x3daec115	0.08532921
124	0x3d4d8564	0.05017604
125	0x3e5ee2d0	0.2176621
126	0x3b156fde	0.0022802274
127	0x3cd93fb8	0.026519641

mu.weight f4 [4, 128]
0	0x3d927ae7	0.07152348
1	0xbcfd3a4c	-0.030911587
2	0xbd9f5f00	-0.07781792
3	0x3df6fcf0	0.12059963
4	0x3daecf13	0.0853559
5	0xbd0ccc6f	-0.03437465
6	0xbdbf4cad	-0.093407966
7	0x3e152762	0.14565805
8	0xbd8a0201	-0.067386635
9	0xbd2db5c9	-0.042409692
10	0x3d0cbfe2	0.03436268
11	0xbd0d397f	-0.03447866
12	0x3e8ad581	0.27116016
13	0xbb6f6a76	-0.0036531962
14	0x3d280a5e	0.041025512
15	0x3b28fad0	0.0025784262
16	0xbe08ccca	-0.13359371
17	0x3e97d100	0.29651642
18	0xbd925774	-0.071455866
19	0xbd35b3c5	-0.044360895
20	0x3d83557a	0.06412788
21	0x3dc04ab3	0.09389248
22	0xbbee3eba	-0.007270661
23	0x3d8e0651	0.069347985
24	0xbe0e9a46	-0.13926038
25	0x3c9cd7c4	0.019145854
26	0x3e49da6d	0.19712229
27	0xbdd2ecc7	-0.10299068
28	0xbd96fc83	-0.073723815
29	0x3b8aa2b5	0.004230822
30	0xbe98041a	-0.2969063
31	0xbc632519	-0.013863825
32	0xbdaaf7b8	-0.0834803
33	0xbda00e87	-0.07815271
34	0x3dd00b46	0.101584
35	0x3e23e53f	0.16005419
36	0x3e5748b3	0.21023826
37	0xbca374ff	-0.019953249
38	0xbb4cb3a7	-0.003123501
39	0x3c4e5b50	0.012595013
40	0x3c9febc8	0.019521609
41	0xbd14e491	-0.03635079
42	0xbc7879a9	-0.015165725
43	0x3c9a7887	0.0188563
44	0x3e7cce5a	0.24688092
45	0xbb0ee488	-0.0021803696
46	0x3d78bf82	0.06072951
47	0xbdbcae75	-0.092129625
48	0xbd754aee	-0.05988591
49	0x3de4f6e8	0.11179906
50	0x3ccd5373	0.025064206
51	0x3e2e90db	0.17047445
52	0xbdd7a4e6	-0.10529499
53	0xbcda9679	-0.02668308
54	0xbcf82594	-0.030291356
55	0xbe155f75	-0.14587195
56	0x3d7c6780	0.061622143
57	0x3c3eaa8c	0.011637341
58	0x3d76b0c3	0.060227167
59	0x3e0e53ae	0.13899109
60	0x3cf59ddc	0.0299825
61	0xbca82201	-0.020524027
62	0x3a4819b9	0.00076332275
63	0x3e909c28	0.28244138
64	0xbdc65ae2	-0.09685303
65	0xbbc4631b	-0.0059932596
66	0x3d7cf7b5	0.06175967
67	0x3db9374c	0.0904375
68	0x3e29d356	0.16584525
69	0x3e770830	0.24124217
70	0xbd2da3fd	-0.04239272
71	0xbce69fb8	-0.028152332
72	0xbd263536	-0.04057809
73	0xbe079912	-0.13241985
74	0x3e8206d9	0.2539585
75	0x3e061dfa	0.13097373
76	0x3c3905dd	0.011292902
77	0x3cdb288f	0.026752738
78	0xbdcbc851	-0.09950317
79	0xbcfd8752	-0.030948315
80	0x3d3e8ace	0.046519093
81	0xbbfa9128	-0.0076466985
82	0x3d22b922	0.039727338
83	0x3db0db7e	0.08635615
84	0xbe8f7051	-0.28015378
85	0x3ba54621	0.0050437604
86	0x3d3dcf96	0.046340548
87	0xbde1bec1	-0.110227115
88	0x3c772828	0.015085258
89	0xbe5841e0	-0.2111888
90	0x3d65917b	0.056046944
91	0x3d80699a	0.06270142
92	0x3e6426d8	0.22280443
93	0xbe4a0c0e	-0.19731161
94	0x3e8e4c63	0.27792653
95	0x3e0c424b	0.13697164
96	0xbdd1e782	-0.10249235
97	0x3cb4d7f5	0.022075633
98	0x3dd3cc5a	0.10341711
99	0xbdc4ce17	-0.09609621
100	0xbd39a15c	-0.0453199
101	0x3cde9309	0.027169721
102	0x3c5b13f4	0.013371456
103	0xbd7800e1	-0.060547713
104	0x3ddceb67	0.10787087
105	0xbd1ac5e7	-0.03778639
106	0x3e372693	0.17885809
107	0x3dc8710a	0.097871855
108	0x3e072440	0.13197422
109	0xbd83106e	-0.06399618
110	0xbb813cef	-0.0039440314
111	0xbe40d01a	-0.18829384
112	0x3c65ae7d	0.014018652
113	0x3d22972f	0.03969496
114	0x3ddb5848	0.10710198
115	0x3e140a31	0.14457013
116	0x3ced6568	0.028979018
117	0x3e06c318	0.1316036
118	0x3e22ac5d	0.15886064
119	0x3d5acce2	0.053418048
120	0x3e233443	0.15937905
121	0xbd0ff33d	-0.03514408
122	0x3d79c888	0.060982257
123	0xbdb64f2b	-0.08901819
124	0xbd60a185	-0.054841537
125	0xbccc5cc5	-0.02494658
126	0xbe031452	-0.1280072
127	0xbc3d4d80	-0.011554122
128	0x3bb53c1f	0.0055308486
129	0xbb96ea5a	-0.0046055736
130	0xbcc99015	-0.024604836
131	0x3e72cc35	0.23710711
132	0x3d2beaab	0.041971844
133	0x3c034811	0.008012787
134	0xbc60fc40	-0.013732016
135	0x3e558b0a	0.2085382
136	0x3d0058a6	0.03133454
137	0x3d6699bd	0.05629896
138	0xbd00b8fe	-0.031426422
139	0x3e15e721	0.1463895
140	0x3d95ce56	0.07314746
141	0x3e2bde22	0.16783956
142	0x3d6ffaf1	0.058588926
143	0xbdf1b18d	-0.11801443
144	0xbddaea8a	-0.10689266
145	0xbe2a088f	-0.16604827
146	0x3e21997b	0.15781204
147	0x3bf90b27	0.0076002064
148	0xbd383d6b	-0.044980448
149	0x3d68dc44	0.056850687
150	0xbe1d6bf8	-0.15373218
151	0xbdaa2655	-0.083080925
152	0xbe126c2e	-0.1429908
153	0x3c000380	0.007813334
154	0x3e09d237	0.13459097
155	0x3dc78104	0.09741405
156	0xbd9302c1	-0.0717826
157	0xbe090860	-0.13382101
158	0xbdb370fa	-0.08761783
159	0xbd5b8a97	-0.053598966
160	0x3e8af466	0.27139586
161	0xbdc9b2db	-0.09848567
162	0xbd1dc895	-0.038521368
163	0x3b86b20b	0.00411058
164	0x3d8cbd75	0.068720736
165	0xbd131ac3	-0.035914194
166	0xbdaa89b3	-0.08327045
167	0x3e2e9a8b	0.17051141
168	0xbc9b7d4b	-0.018980643
169	0x3da2ebe4	0.07955149
170	0xbe739e19	-0.23790778
171	0xbde0727a	-0.10959335
172	0xbe335466	-0.17512664
173	0x3d73341f	0.05937588
174	0x3c42d2e6	0.011891102
175	0x3d667f0f	0.056273516
176	0xbea0681e	-0.31329435
177	0xbc38a52b	-0.011269848
178	0x3e89d924	0.26923478
179	0x3e7ce9da	0.24698582
180	0xbd8c0393	-0.06836619
181	0xbde8de5b	-0.11370536
182	0x3db66354	0.08905664
183	0x3e2b349b	0.16719286
184	0xbb05b431	-0.0020401592
185	0x3e06b67d	0.13155551
186	0xbc819343	-0.01581729
187	0x3caaa010	0.020828277
188	0x3e1ed4ed	0.15510912
189	0x3e282bf9	0.16423024
190	0x3e3eaede	0.18621394
191	0xbd77a76a	-0.060462393
192	0xbd924de5	-0.071437635
193	0x3d677c71	0.05651516
194	0xbc064dc9	-0.008197256
195	0xbe8adfe1	-0.2712393
196	0x3bbed11a	0.0058232667
197	0xbd8587f0	-0.06520069
198	0xbd3521aa	-0.044221558
199	0xbcd72b3f	-0.026265739
200	0x3a872723	0.0010311346
201	0xbe3303e8	-0.17481959
202	0xbd447d49	-0.047971044
203	0x3d90e014	0.070739895
204	0x3bc307d9	0.0059518632
205	0xbe067076	-0.13128838
206	0x3c857d27	0.016295029
207	0xbd06be2e	-0.032896213
208	0xbd48dddc	-0.049039707
209	0xbd9d7765	-0.07688788
210	0x3d18a09f	0.037262555
211	0xbc2286c2	-0.009919824
212	0xbe0efc2b	-0.13963382
213	0xbd78c9d2	-0.060739346
214	0xbd4860fb	-0.048920613
215	0xbe5eca42	-0.21756843
216	0xbda5dead	-0.08099113
217	0x3d8403d0	0.0644604
218	0xbd463ecd	-0.048399735
219	0xbe3b74a4	-0.18306214
220	0x3d6257fa	0.055259682
221	0xbe473a4e	-0.19455835
222	0x3c16d494	0.009205956
223	0x3e2b7e6c	0.16747445
224	0xbd8e9c44	-0.06963399
225	0x3e7e2f20	0.24822664
226	0xbe2e6625	-0.17031153
227	0x3d183e35	0.0371687
228	0x3e2249b5	0.1584843
229	0x3cea4679	0.028598057
230	0x3d075ca3	0.03304733
231	0x3d5bf082	0.053696163
232	0x3d08e9ef	0.03342622
233	0x3e2ac547	0.16676818
234	0x3d92ea5d	0.071736075
235	0xbe34cbc4	-0.17655855
236	0xbe10b638	-0.14132011
237	0x3d58660b	0.05283169
238	0x3e27e1e7	0.16394769
239	0xbd814caa	-0.06313451
240	0x3e51f490	0.2050345
241	0x3d1fece1	0.039044265
242	0x3e1ecbdb	0.15507452
243	0xbd8c5278	-0.06851667
244	0x3d340022	0.04394544
245	0xbd32a698	-0.043615907
246	0x3da72968	0.081621945
247	0xbe0e1f6c	-0.13879174
248	0xbbbda2f7	-0.005787249
249	0x3dcd8385	0.10034851
250	0xbd202808	-0.039100677
251	0x3de750b1	0.112946875
252	0xbd5a7946	-0.05333831
253	0x3dca7c15	0.09886948
254	0xbdfbb057	-0.122894935
255	0xbdfcac17	-0.12337511

mu.bias f4 [4]
0	0xbd62db58	-0.055384964
1	0x3d46bb7d	0.048518647
2	0xbc2cc577	-0.010545126
3	0x3d451c9f	0.048123

v.weight f4 [1, 128]
0	0x3dcb6b47	0.09932571
1	0x3e403226	0.1876913
2	0x3e4723f2	0.19447306
3	0xbd040fac	-0.03224151
4	0x3e213ded	0.15746279
5	0x3e29f1e1	0.16596176
6	0x3d4fbe67	0.05071869
7	0x3dcbb371	0.09946335
8	0x3e6102ce	0.21973726
9	0x3e09beeb	0.13451736
10	0x3e20d320	0.15705538
11	0x3e4ba3a3	0.19886641
12	0xbd98b140	-0.07455683
13	0x3d1dac7f	0.038494583
14	0x3dfecf5f	0.12441897
15	0x3dc78210	0.09741604
16	0xbc77d681	-0.015126825
17	0xbcc41805	-0.023937235
18	0xbdcf1239	-0.101108976
19	0x3e3bb3a7	0.1833025
20	0x3dd56203	0.10419085
21	0x3dd645c7	0.10462528
22	0x3dc37d81	0.09545422
23	0x3dd4a6a4	0.10383347
24	0x3e473e45	0.19457348
25	0x3e46af50	0.19402814
26	0x3dbcb50d	0.0921422
27	0xbcafba40	-0.021451116
28	0x3e2e4861	0.17019798
29	0xbc2046ab	-0.009782474
30	0x3de776dc	0.113019675
31	0x3e4b653a	0.19862834
32	0xbe1223c2	-0.14271453
33	0x3db543b3	0.08850803
34	0x3e08b7cc	0.13351363
35	0x3aafaa63	0.001340222
36	0xbde6aaab	-0.11263021
37	0x3e4088b6	0.18802151
38	0x3df11c16	0.11772935
39	0xbe00a1c0	-0.12561703
40	0x3e26d5b1	0.16292454
41	0xbe106559	-0.14101161
42	0x3d83fba8	0.06444484
43	0x3b59a633	0.0033210635
44	0x3ccf035a	0.025270153
45	0x3e0786b6	0.13234982
46	0x3dfb341d	0.12265799
47	0x3e4e6dfe	0.20159146
48	0x3be474b0	0.006971918
49	0x3d7ae01b	0.06124888
50	0x3c3dc196	0.011581799
51	0xbd75a98e	-0.059976153
52	0x3e1b9e99	0.15197219
53	0x3e48cc4e	0.19609186
54	0x3d87562e	0.06608234
55	0x3bf1783e	0.0073690703
56	0x3da58004	0.08081058
57	0x3c85401d	0.016265923
58	0xbd8da68d	-0.06916533
59	0x3c324c42	0.010882439
60	0x3e085833	0.13314895
61	0x3d4a37a7	0.04936948
62	0x3d0f22d0	0.03494531
63	0xbdc7467c	-0.09730241
64	0x3e4aa603	0.19789891
65	0x3dfeb102	0.12436105
66	0x3df3dd86	0.119074866
67	0xbd957be5	-0.07299022
68	0x3c29750d	0.0103428485
69	0xbcdbbbf0	-0.026823014
70	0x3e44f4be	0.19233987
71	0x3e3fda52	0.18735626
72	0x3dde1b77	0.10845082
73	0xbcee8fa4	-0.029121228
74	0x3d510340	0.05102849
75	0x3dd83174	0.105563074
76	0x3dcfb718	0.10142344
77	0x3bceb155	0.0063077607
78	0x3e471c45	0.19444378
79	0x3e1ba1c3	0.15198426
80	0x3e579c9b	0.21055834
81	0x3dc705f0	0.09717929
82	0x3dbf756a	0.09348567
83	0x3e6e08c1	0.23245527
84	0x3d1fccc2	0.03901363
85	0x3e037d9c	0.12840885
86	0x3e30f0bd	0.17279334
87	0x3dc047a9	0.09388668
88	0x3e28ab16	0.16471514
89	0x3c85639d	0.01628285
90	0x3e256410	0.16151452
91	0x3d1031ce	0.035203747
92	0x3d237fb9	0.039916728
93	0x3d315cee	0.043301515
94	0xbd0d85c5	-0.0345514
95	0x3dbb4d41	0.091455944
96	0x3e014a9c	0.12626117
97	0x3be5cea2	0.007013158
98	0x3d2acc5a	0.04169879
99	0x3d244577	0.04010531
100	0x3d268353	0.040652584
101	0x3e4016bf	0.18758677
102	0x3e4e17d0	0.20126271
103	0x3cd16f1f	0.025565682
104	0x3be031ba	0.0068418654
105	0xbd368139	-0.04455683
106	0x3cb12f7a	0.021629084
107	0xbc34f977	-0.011045805
108	0x3c8a02e3	0.01684708
109	0x3e6629a1	0.22476818
110	0x3e450837	0.19241415
111	0xbc3dac37	-0.011576704
112	0x3da23bb0	0.07921541
113	0x3e2b1bf8	0.16709888
114	0x3da296d9	0.07938928
115	0x3da2bcd5	0.07946173
116	0x3e5ae3cf	0.21375965
117	0xbe18389d	-0.14865346
118	0xbd8d69a9	-0.06904919
119	0x3daf205b	0.08551093
120	0xbce0fd38	-0.027464494
121	0x3e294257	0.16529213
122	0x3d86644a	0.06562097
123	0x3dee774d	0.116438486
124	0x3e380130	0.17969203
125	0x3e4d0da7	0.20024739
126	0x3c949fea	0.01814266
127	0x3de51861	0.111862905
